{"format": "torch", "nodes": [{"name": "transforms.0", "id": 139769381775184, "class_name": "LinearLU()", "parameters": [["lower_entries", [6]], ["upper_entries", [6]], ["unconstrained_upper_diag", [4]]], "output_shape": [[256, 4], [256]], "num_parameters": [6, 6, 4]}, {"name": "transforms.1", "id": 139769381775568, "class_name": "AffineCoupling(\n  (nn_s): MLP(\n    (non_linearity): LeakyReLU(negative_slope=0.01)\n    (in_layer): Linear(in_features=2, out_features=2, bias=True)\n    (out_layer): Linear(in_features=2, out_features=4, bias=True)\n    (layers): ModuleList()\n  )\n  (nn): MLP(\n    (non_linearity): LeakyReLU(negative_slope=0.01)\n    (in_layer): Linear(in_features=2, out_features=2, bias=True)\n    (out_layer): Linear(in_features=2, out_features=4, bias=True)\n    (layers): ModuleList()\n  )\n)", "parameters": [["nn_s.in_layer.weight", [2, 2]], ["nn_s.in_layer.bias", [2]], ["nn_s.out_layer.weight", [4, 2]], ["nn_s.out_layer.bias", [4]], ["nn.in_layer.weight", [2, 2]], ["nn.in_layer.bias", [2]], ["nn.out_layer.weight", [4, 2]], ["nn.out_layer.bias", [4]]], "output_shape": [[256, 4], [256]], "num_parameters": [4, 2, 8, 4, 4, 2, 8, 4]}, {"name": "transforms.2", "id": 139769381775504, "class_name": "LinearLU()", "parameters": [["lower_entries", [6]], ["upper_entries", [6]], ["unconstrained_upper_diag", [4]]], "output_shape": [[256, 4], [256]], "num_parameters": [6, 6, 4]}, {"name": "transforms.3", "id": 139769381776784, "class_name": "AffineCoupling(\n  (nn_s): MLP(\n    (non_linearity): LeakyReLU(negative_slope=0.01)\n    (in_layer): Linear(in_features=2, out_features=2, bias=True)\n    (out_layer): Linear(in_features=2, out_features=4, bias=True)\n    (layers): ModuleList()\n  )\n  (nn): MLP(\n    (non_linearity): LeakyReLU(negative_slope=0.01)\n    (in_layer): Linear(in_features=2, out_features=2, bias=True)\n    (out_layer): Linear(in_features=2, out_features=4, bias=True)\n    (layers): ModuleList()\n  )\n)", "parameters": [["nn_s.in_layer.weight", [2, 2]], ["nn_s.in_layer.bias", [2]], ["nn_s.out_layer.weight", [4, 2]], ["nn_s.out_layer.bias", [4]], ["nn.in_layer.weight", [2, 2]], ["nn.in_layer.bias", [2]], ["nn.out_layer.weight", [4, 2]], ["nn.out_layer.bias", [4]]], "output_shape": [[256, 4], [256]], "num_parameters": [4, 2, 8, 4, 4, 2, 8, 4]}, {"name": "transforms.4", "id": 139769381776912, "class_name": "LinearLU()", "parameters": [["lower_entries", [6]], ["upper_entries", [6]], ["unconstrained_upper_diag", [4]]], "output_shape": [[256, 4], [256]], "num_parameters": [6, 6, 4]}, {"name": "transforms.5", "id": 139769377866192, "class_name": "AffineCoupling(\n  (nn_s): MLP(\n    (non_linearity): LeakyReLU(negative_slope=0.01)\n    (in_layer): Linear(in_features=2, out_features=2, bias=True)\n    (out_layer): Linear(in_features=2, out_features=4, bias=True)\n    (layers): ModuleList()\n  )\n  (nn): MLP(\n    (non_linearity): LeakyReLU(negative_slope=0.01)\n    (in_layer): Linear(in_features=2, out_features=2, bias=True)\n    (out_layer): Linear(in_features=2, out_features=4, bias=True)\n    (layers): ModuleList()\n  )\n)", "parameters": [["nn_s.in_layer.weight", [2, 2]], ["nn_s.in_layer.bias", [2]], ["nn_s.out_layer.weight", [4, 2]], ["nn_s.out_layer.bias", [4]], ["nn.in_layer.weight", [2, 2]], ["nn.in_layer.bias", [2]], ["nn.out_layer.weight", [4, 2]], ["nn.out_layer.bias", [4]]], "output_shape": [[256, 4], [256]], "num_parameters": [4, 2, 8, 4, 4, 2, 8, 4]}, {"name": "transforms.6", "id": 139768342184272, "class_name": "LinearLU()", "parameters": [["lower_entries", [6]], ["upper_entries", [6]], ["unconstrained_upper_diag", [4]]], "output_shape": [[256, 4], [256]], "num_parameters": [6, 6, 4]}, {"name": "transforms.7", "id": 139769377866512, "class_name": "AffineCoupling(\n  (nn_s): MLP(\n    (non_linearity): LeakyReLU(negative_slope=0.01)\n    (in_layer): Linear(in_features=2, out_features=2, bias=True)\n    (out_layer): Linear(in_features=2, out_features=4, bias=True)\n    (layers): ModuleList()\n  )\n  (nn): MLP(\n    (non_linearity): LeakyReLU(negative_slope=0.01)\n    (in_layer): Linear(in_features=2, out_features=2, bias=True)\n    (out_layer): Linear(in_features=2, out_features=4, bias=True)\n    (layers): ModuleList()\n  )\n)", "parameters": [["nn_s.in_layer.weight", [2, 2]], ["nn_s.in_layer.bias", [2]], ["nn_s.out_layer.weight", [4, 2]], ["nn_s.out_layer.bias", [4]], ["nn.in_layer.weight", [2, 2]], ["nn.in_layer.bias", [2]], ["nn.out_layer.weight", [4, 2]], ["nn.out_layer.bias", [4]]], "output_shape": [[256, 4], [256]], "num_parameters": [4, 2, 8, 4, 4, 2, 8, 4]}, {"name": "transforms.8", "id": 139769377866384, "class_name": "LinearLU()", "parameters": [["lower_entries", [6]], ["upper_entries", [6]], ["unconstrained_upper_diag", [4]]], "output_shape": [[256, 4], [256]], "num_parameters": [6, 6, 4]}, {"name": "transforms.9", "id": 139769377866064, "class_name": "AffineCoupling(\n  (nn_s): MLP(\n    (non_linearity): LeakyReLU(negative_slope=0.01)\n    (in_layer): Linear(in_features=2, out_features=2, bias=True)\n    (out_layer): Linear(in_features=2, out_features=4, bias=True)\n    (layers): ModuleList()\n  )\n  (nn): MLP(\n    (non_linearity): LeakyReLU(negative_slope=0.01)\n    (in_layer): Linear(in_features=2, out_features=2, bias=True)\n    (out_layer): Linear(in_features=2, out_features=4, bias=True)\n    (layers): ModuleList()\n  )\n)", "parameters": [["nn_s.in_layer.weight", [2, 2]], ["nn_s.in_layer.bias", [2]], ["nn_s.out_layer.weight", [4, 2]], ["nn_s.out_layer.bias", [4]], ["nn.in_layer.weight", [2, 2]], ["nn.in_layer.bias", [2]], ["nn.out_layer.weight", [4, 2]], ["nn.out_layer.bias", [4]]], "output_shape": [[256, 4], [256]], "num_parameters": [4,
…
